pytorch_models/TD3_AntBulletEnv-v0_0_actor.pth (torch, 539639 bytes, 6 tensors)

layer_1.weight f4 [400, 28]
000000 3d f2 77 3e 61 5f 5d 3e c9 cb 02 be 87 3e 7f be
       0.242135 0.21618415 -0.1277305 -0.24926196
000010 43 0d eb bd e4 c1 57 bd 92 2e 86 bd 49 f7 c7 3d
       -0.11477139 -0.052675143 -0.06551851 0.09763963
000020 74 13 11 be 29 43 7c 3e ee 8b 02 be 03 22 04 be
       -0.14167577 0.24634995 -0.12748691 -0.129036
000030 3a 79 be be ab a1 25 be 1b 48 35 be 51 5e 97 bd
       -0.37201864 -0.16174953 -0.17703287 -0.07391036
000040 25 ac 8e 3d 96 6c 11 3e ae c0 c2 3d 0b dc cb be
       0.06966428 0.14201578 0.09509407 -0.39816317
000050 e5 96 ad 3c 14 19 a1 3e a7 32 e7 3d 8f 4a 4c 3f
       0.021190116 0.31464446 0.11288958 0.7980127
000060 f1 bc a0 be 75 c6 18 be 16 48 b5 bd f6 75 c0 be
       -0.3139415 -0.14919455 -0.0885164 -0.37589997
000070 ca 42 ec 3d 8e c4 97 bf 45 66 e1 bd fd c4 4f be
       0.115361765 -1.1856859 -0.110058345 -0.20289989
000080 1f e1 47 3e c3 52 59 3e 82 ae 85 be 34 af 1a bf
       0.1951947 0.21222977 -0.261097 -0.6042359
000090 c3 2b 67 be 98 2f d1 3d 1f 59 d1 3d 6a 72 e3 3e
       -0.22575288 0.10214156 0.102220766 0.44423229
0000a0 40 b5 fa be 45 55 fb 3d 7e 9a 81 3e 3f 60 a8 be
       -0.48966408 0.12272123 0.2531318 -0.3288593
0000b0 5c d8 c0 bb f9 ea ed bc b4 35 e1 3e 4c 9e 61 3e
       -0.005885167 -0.029042708 0.43986285 0.22033042
0000c0 a4 ae 22 3e 0e 09 03 be b8 4d 45 3e ed 48 c6 bd
       0.15886933 -0.12796423 0.19267929 -0.09681878
0000d0 ec ed a5 3d 4b 12 12 be 5f 92 c4 bc f7 7f b3 be
       0.081020206 -0.1426479 -0.023995576 -0.35058567
0000e0 59 c1 e2 3d 09 d3 1f be 19 29 36 be d6 a2 e0 be
       0.110720344 -0.15607847 -0.17789115 -0.43874234
0000f0 aa 21 64 3f cc e7 41 bd 6f 1b 84 3e fa a8 67 be
       0.8911387 -0.0473402 0.2580218 -0.22623053
000100 fe bc 6c be 13 49 c7 be c8 95 38 bd ee 18 04 3e
       -0.2311897 -0.3892294 -0.045064718 0.12900135
000110 4c fe 84 3e 98 e2 88 3e 5e 61 a8 bd 34 9f 6f be
       0.25975263 0.26735377 -0.08221696 -0.23400575
000120 df 47 a0 3e 52 29 43 be 07 6b 34 3e c6 b4 84 be
       0.31304833 -0.19058731 0.17618953 -0.2591917
000130 2c bd 49 3e 20 98 1b bf 44 a1 3e be f1 15 38 3d
       0.1970107 -0.60779 -0.18616205 0.0449428
000140 99 d7 da be dd 83 96 3e 87 8b 67 3e 76 94 4c be
       -0.42742613 0.2939748 0.22611819 -0.19978508
000150 df ec c8 bd 9f b6 9c bd 13 9b 70 3d c1 4f a4 bf
       -0.098108046 -0.0765202 0.05874164 -1.2836839
000160 2f e6 4a be 9a e1 24 bf 90 5d 93 bc 31 b0 b5 3b
       -0.1981437 -0.6440674 -0.01798895 0.0055446853
000170 36 fd f1 bd 6f 8b 7d be c8 dd 84 be 12 6c 99 3e
       -0.11815874 -0.24760221 -0.25950456 0.29965264
000180 8d 84 20 3e 35 a9 94 bd ac 28 e3 bd 10 87 76 be
       0.15675564 -0.07258836 -0.11091742 -0.2407496
000190 f3 49 93 3e cc f6 42 3e 8d 9a bd bb 6a 2c 3b be
       0.28767356 0.19039458 -0.005786246 -0.18278661
0001a0 5f 43 6b be 15 d1 47 bd 6e 56 0d be 29 2c 68 bf
       -0.22974919 -0.04878338 -0.13802502 -0.90692383
0001b0 52 68 aa bd 00 c1 c1 3c 7f 58 62 bf 4b 3c 8e 3d
       -0.08320679 0.0236516 -0.88416284 0.06945094
0001c0 b7 a7 71 3d c5 37 ef 3d 9a 87 37 bc ce 90 df bd
       0.058997836 0.11680559 -0.0112017635 -0.10916291
0001d0 47 f6 16 3b 26 63 75 3e 90 ec 66 3e 87 4b 11 be
       0.0023034976 0.23963603 0.22551179 -0.14188968
0001e0 8c 5c 0a 3f e3 5e a4 be 3a 50 ca 3d cf 00 fe bd
       0.54047465 -0.32103643 0.09878583 -0.12402498
0001f0 c4 5a 5d be e0 f4 3c bf 17 b5 40 be 7e 46 65 3d
       -0.21616656 -0.7381115 -0.1881908 0.05597543
000200 44 78 9d 3e 60 f7 58 be ee 73 3d be df 1d 59 3f
       0.30755818 -0.21188116 -0.18501255 0.84811205
000210 98 07 25 be a1 58 03 bd a9 e9 47 3e f6 80 b1 be
       -0.16116178 -0.032066945 0.19522728 -0.34668702
000220 0f e4 82 be 9b 85 65 3d c1 de 93 bd bb aa ad bd
       -0.2556462 0.05603562 -0.07220221 -0.0847983
000230 9e d0 2a 3e 85 c6 24 3d 84 76 e2 3d b8 f5 61 bd
       0.16681144 0.040228385 0.11057761 -0.055165976
000240 f0 51 d6 3d b2 ad 94 be 5a 1d 98 be b3 cc 30 3f
       0.10464847 -0.2903877 -0.29709893 0.69062346
000250 e9 b1 0a bf 18 3e 06 bd b5 0f ac be 6f 0a d1 3d
       -0.5417772 -0.03277406 -0.33605734 0.10207068
000260 fc 21 0d be 12 37 f6 3e e2 3e 7c bc 01 ff c4 bc
       -0.13782495 0.4808889 -0.015395852 -0.024047377
000270 5c fc fc bd be 5f 36 3e 52 9c e2 bd 3a d6 eb 3e
       -0.12352821 0.1780996 -0.11064972 0.4606188
000280 e5 3f e0 3e ff 50 7d be bc ab 24 bd a8 9e ea be
       0.43798748 -0.24737929 -0.04020284 -0.4582417
000290 4d 5c 8d 3c 1e 6b 69 be 9b b2 c1 be 1e de f8 ba
       0.017255927 -0.22794768 -0.37831578 -0.0018987095
0002a0 8d a7 20 be 60 99 18 3e bf d7 cb 3d 4c 6d 66 3e
       -0.15688916 0.14902258 0.0995326 0.22502631
0002b0 b4 0a 6e be 22 88 0d be a8 84 08 3d d3 cd 20 bc
       -0.2324627 -0.13821462 0.033329636 -0.009814697
0002c0 93 5d 8b 3e 54 09 77 be 46 a2 7e 3e 2a f2 4c be
       0.2721983 -0.24124652 0.2486659 -0.20014253
0002d0 fe 3f b2 be 0f 39 e4 bd c9 e1 dd 3d a2 38 f5 be
       -0.34814447 -0.111436956 0.10834081 -0.4789477
0002e0 ff 3d 02 3f 59 f4 11 be cf a7 8a 3d bd dc e1 3e
       0.5087585 -0.14253367 0.06770288 0.44113722
0002f0 35 dc 23 be 18 3f 9c bb ce a5 02 3d b7 e9 f5 3e
       -0.16001971 -0.0047682635 0.031896405 0.48029873
000300 73 05 2b be 2a cc f0 be 77 67 b7 be c3 34 82 be
       -0.16701297 -0.47030765 -0.35821125 -0.2543088
000310 66 5c 38 bc 01 e4 24 bf bc d3 44 be 06 da 0c 3f
       -0.011252498 -0.64410406 -0.19221395 0.5502018
000320 85 46 05 bf e2 f3 1f bc 01 37 de bd c7 d5 10 bf
       -0.5206073 -0.009762736 -0.10850335 -0.565762
000330 15 30 2e bf 20 dd d5 3e 35 f9 12 3e dc 51 b4 3e
       -0.6804212 0.41770267 0.14352877 0.35218704
000340 b8 1c 63 be e2 79 0c be 2c e7 46 3d 1d bc bd 3e
       -0.22178924 -0.1371837 0.048560306 0.37057582
000350 93 86 1e bf be 32 63 bf d9 25 a9 3d 23 b2 b6 be
       -0.61924094 -0.887493 0.08259172 -0.35682783
000360 92 67 a9 3d 48 ba 0d bf e6 c5 b3 3e 8a e4 eb be
       0.082717076 -0.5536237 0.35111922 -0.460728
000370 56 c9 82 bd 4d 73 d7 3e 3f ec 2a bd 4e f9 eb bc
       -0.06386058 0.42080155 -0.041729208 -0.028805401
000380 d1 64 96 be f7 98 91 3e d2 57 6a bf 0f 18 27 bf
       -0.29373792 0.28437015 -0.91540253 -0.65271086
000390 7b 5e ca be 64 8c 36 bf c8 3e f8 3c 66 8c 25 3f
       -0.39525208 -0.7130797 0.030303374 0.64667356
0003a0 6b a7 77 3e 30 e0 d0 bc 23 d6 2a 3e dc 07 73 be
       0.24184959 -0.025497526 0.16683249 -0.23733467
0003b0 96 ed cf 3d 66 c0 da 3d c5 73 48 3d 5e 7c 82 3d
       0.10152738 0.10681228 0.04893853 0.063713774
0003c0 d2 d0 85 bd cf f0 bf be d4 ee b1 be 87 03 1d bd
       -0.0653397 -0.3748841 -0.34752524 -0.038333442
0003d0 2d bf 10 3d 2c 97 24 3e 7a 1d 02 3d 16 f2 10 bf
       0.03533857 0.16073292 0.031766392 -0.56619394
0003e0 1f f5 15 3e 57 09 af 3d 3c 5f 50 bf 62 d1 43 3e
       0.14644288 0.08546703 -0.81395316 0.19122842
0003f0 ae 81 71 3e 70 09 32 bf 4e 21 b3 3c 9e 0f c2 3e
       0.23584625 -0.6954565 0.021866467 0.3790254

layer_1.bias f4 [400]
000000 a3 fd 0b 3e 01 30 49 3d 17 27 9e 3d 25 5f 61 3c
       0.13670973 0.049118046 0.077222995 0.013755594
000010 59 28 a5 bd a6 30 ce bd 44 27 dd 3d e8 b1 a8 bd
       -0.08064336 -0.10067873 0.10798505 -0.08237058
000020 02 fc d5 3d 69 ce f9 3d 0a 80 f6 bd 0c ca 1a 3c
       0.10448457 0.12197573 -0.1203614 0.009447586
000030 87 bd 93 bd 51 4c 99 be cc 10 e2 bd ca 82 88 bc
       -0.07213884 -0.29941037 -0.1103836 -0.016663928
000040 ce 37 18 bd 40 3f e7 bd b7 f3 8d bd af 03 0f bc
       -0.037162594 -0.11291361 -0.069312505 -0.008728906
000050 70 45 51 be 73 47 89 bb d4 14 57 be 21 19 14 be
       -0.20436645 -0.0041894256 -0.21004039 -0.14462711
000060 c2 4c 08 bc d9 e1 cf bc 19 c8 01 be 02 ed 6b 3d
       -0.008319082 -0.025376247 -0.12673987 0.057599075
000070 0c 92 89 bd 17 1a 2f bd 11 b8 e3 bd 37 b9 68 be
       -0.06717309 -0.04274949 -0.11119092 -0.22726904
000080 c6 bd 0e be 3f cf c8 3a 8e 00 0e be 03 54 06 3e
       -0.1393958 0.0015320553 -0.13867399 0.13117985
000090 f0 d3 1e 3d 38 05 91 bd 92 06 28 be c5 56 53 bd
       0.038776338 -0.070810735 -0.16408756 -0.05159642
0000a0 bf 3e e5 3b 72 3a 11 bd c5 9c a6 bd 9b 9d 43 be
       0.0069960053 -0.03545613 -0.0813537 -0.1910309
0000b0 5c 06 ad be 76 f0 ae bc cf f0 80 be 4a fa 4b bd
       -0.33793914 -0.021354895 -0.25183722 -0.04979924
0000c0 f4 34 90 bd 15 1d 7a be 10 7e 7d bd 23 22 30 3e
       -0.0704135 -0.24425156 -0.0618878 0.17200522
0000d0 6a 8b b5 3b 62 9b 01 be b4 73 0f bd 27 f6 5d be
       0.005540301 -0.1265693 -0.035022452 -0.21675931
0000e0 50 4b 83 bd 19 56 c4 3d 74 c4 d1 3c 57 3f 5e 3e
       -0.06410849 0.09586734 0.025606371 0.2170385
0000f0 0b f3 18 bd 76 7b 5d be fb 87 56 bc 92 db f8 3b
       -0.03734116 -0.21629128 -0.013093944 0.007594534
000100 78 ca 19 3d cb c7 85 3d 55 6f 4f be 9b f3 22 3d
       0.037546605 0.06532248 -0.20257314 0.0397831
000110 30 71 8a 3d 94 e4 de bd 93 27 ea 3b 2f 61 7f 3d
       0.0675987 -0.108834416 0.007145831 0.06234854
000120 27 6f 78 bd b6 77 69 be 33 a2 59 bd 68 35 96 be
       -0.060652878 -0.22799572 -0.0531332 -0.2933762
000130 97 ba 2e 3e 8d 58 8e 3d 23 2d 1b be 90 f4 e8 be
       0.17063366 0.069504835 -0.15153937 -0.45499086
000140 2c 69 35 3e dc 26 4a 3d 12 d5 a8 be 3c a6 a2 bc
       0.17715901 0.049353465 -0.3297506 -0.019854657
000150 54 7e 3c be 05 12 d7 bd 62 b1 32 be 7f a6 a9 3d
       -0.18407565 -0.10501484 -0.17450479 0.0828371
000160 22 41 41 bd f2 47 26 3e 44 af 5b be 02 27 1e be
       -0.047181256 0.16238382 -0.21453577 -0.15444568
000170 45 05 27 bd 35 56 1e be f7 cc f2 bc 62 b4 a3 bb
       -0.04077651 -0.15462573 -0.02963875 -0.0049958685
000180 2b 2c b2 bd 74 81 cc 3c 30 86 35 be 8a 2b 59 bd
       -0.086998306 0.024964072 -0.1772697 -0.053020038
000190 b9 65 9d bd e3 6c 89 3d a9 06 35 3e 12 47 3d be
       -0.07685418 0.067102216 0.17678322 -0.18484142
0001a0 29 13 27 be f8 4c 5a be 37 c8 b0 3c 3e 3a 00 be
       -0.16315903 -0.21318424 0.021579845 -0.12522218
0001b0 22 46 18 bd 5c 65 cc bc 06 d9 38 be 84 89 46 3c
       -0.03717626 -0.024950676 -0.18051538 0.012117747
0001c0 3d 0d 81 be 8f 5c 81 bb 05 81 e9 bd f4 9a da 3d
       -0.25205413 -0.0039478014 -0.11401562 0.10674086
0001d0 4d d7 f1 3d 7c a9 71 bd d5 5a 94 3d 88 63 4d be
       0.118086435 -0.058999524 0.07243887 -0.200575
0001e0 7e 9d ad 3d d1 79 39 3e 78 d0 79 be b7 93 47 3d
       0.08477305 0.18112876 -0.24395931 0.048724856
0001f0 d6 c1 aa 3d 3b 3b 36 bd 05 52 09 be 68 8b 3c 3e
       0.083377525 -0.04449008 -0.13410194 0.18412554
000200 d2 53 30 3e 9c 74 c9 3c 37 bc 0a 3d c9 c8 09 3d
       0.17219475 0.024591736 0.033870902 0.03363875
000210 40 6d b2 bd b1 0b 7b bd 5b c1 15 be 7a dd 97 bd
       -0.08712244 -0.061290447 -0.1462454 -0.0741529
000220 97 d0 4f 3e bd 63 0b be c5 8a cd be 4d dd e9 3c
       0.20294414 -0.13612266 -0.40144935 0.028547907
000230 70 63 22 be 2d 62 14 3d 33 eb dc 3d 3a bc 17 be
       -0.15858245 0.03622644 0.10787048 -0.14817896
000240 ce f1 ca 3d 85 75 69 3c cf 5d 75 3c d7 24 38 be
       0.09909402 0.01424921 0.014975979 -0.17982803
000250 5e 89 91 be ec 6b 08 be 64 40 69 bd 8d 82 09 3e
       -0.28425115 -0.13322419 -0.056946173 0.13428707
000260 7e 55 08 be dc 2b aa 3d 04 d4 7f bc 0a 6d 2f be
       -0.13313863 0.08309147 -0.015614513 -0.17131439
000270 d1 c4 9c 3c f5 5f cb 3d f1 dc 48 be b6 e4 0a be
       0.019136818 0.09930412 -0.19615532 -0.13563809
000280 94 74 c5 3d 3e c3 dc 3d 59 b6 a5 be 06 b3 9c be
       0.09641376 0.10779427 -0.32365683 -0.30605334
000290 34 3b 23 be ea d8 3b bd 8e 53 07 bd 86 5c 04 bb
       -0.15940553 -0.045861162 -0.03303867 -0.002019675
0002a0 ab ba 28 3e 46 ac bb 3d de 23 f8 bd e2 76 1d bc
       0.16477458 0.09163718 -0.12116216 -0.009610863
0002b0 92 cc 2f be 4c 8e 2b be b3 7a e5 bd b1 a1 78 bd
       -0.17167881 -0.167535 -0.11205044 -0.060701076
0002c0 0b 3a 0c be 81 54 2f be 78 b7 69 3d 2b d4 c1 bb
       -0.13694017 -0.1712208 0.057059735 -0.005915185
0002d0 6b 40 b1 be 6c c1 57 be 27 f7 cd bd 36 d6 78 3c
       -0.3461946 -0.21069878 -0.10056906 0.015187791
0002e0 e0 74 74 bd 0a 9c 95 be b6 60 85 bd 47 1a 7e be
       -0.059681773 -0.2922061 -0.06512587 -0.24814712
0002f0 95 a5 1d be 54 13 8f bd 94 78 bf bb d3 17 7c 3d
       -0.15395196 -0.069861084 -0.0058432315 0.061546158
000300 e4 b4 15 bd 09 55 d8 bd f8 3c 03 be 98 03 56 be
       -0.036549464 -0.10563094 -0.12816226 -0.20899808
000310 bd 31 94 be 29 94 4b 3d 7b 8f f4 bd 5c 45 33 be
       -0.28944197 0.049701843 -0.11941429 -0.17506927
000320 1a 4a 48 be 97 cc 06 3e 89 61 12 be 90 9a 41 be
       -0.19559518 0.13163982 -0.14295019 -0.18906617
000330 21 da bb bd e0 0a ec bd e8 aa 38 be b4 81 f9 3d
       -0.09172464 -0.11525512 -0.18033946 0.12182942
000340 e1 2d f4 bd c1 0d 0d be 0c 1e d4 bd 14 62 b7 3d
       -0.11922813 -0.13774778 -0.103572935 0.08954254
000350 50 96 4f bd 6b ef 26 bc d6 2e 56 be 9a e3 58 be
       -0.05068046 -0.010188918 -0.20916304 -0.21180573
000360 db f5 07 3e 17 1f 96 be cc e8 2f be f9 ca 23 be
       0.1327738 -0.29320595 -0.17178649 -0.15995397
000370 01 cb b3 bd eb 6b 53 bd d8 16 97 be 75 5c af bd
       -0.08778954 -0.05161659 -0.29509616 -0.08562557
000380 06 4d 29 be f9 2c 5a be ef 3a e7 bd 5f 2a 9a be
       -0.16533288 -0.21306218 -0.112905376 -0.30110452
000390 d6 f1 6b 3d c5 d2 f2 bd e7 19 91 be ac 2f 1c be
       0.05760368 -0.11856607 -0.28340074 -0.1525256
0003a0 dd 60 59 be 85 91 6f bd c3 10 03 be 8e be 80 be
       -0.21228357 -0.058488388 -0.12799363 -0.25145382
0003b0 6d 31 30 bd 90 b0 11 3b ce 94 3a be d1 49 dd 3c
       -0.043015886 0.0022230484 -0.18220827 0.027012737
0003c0 7d 56 cb bd 6f bd d7 bd 65 18 73 be 3e 66 b3 3b
       -0.09928606 -0.105341785 -0.23739775 0.0054748347
0003d0 bc 06 2d 3d f0 75 95 bc 38 95 8c 3e 5e ae 18 bc
       0.04224275 -0.018244714 0.27457595 -0.009318916
0003e0 df 34 2c bd 09 51 87 bd f6 e8 55 3e 70 4b 53 bc
       -0.04204261 -0.06607253 0.20889649 -0.012896404
0003f0 6a 6f f1 bd ab 28 6d 3c 86 22 86 be 41 ef 7f 3d
       -0.11788829 0.014475028 -0.26198214 0.06248403

layer_2.weight f4 [300, 400]
000000 6e 4c 1b 3d 22 27 b6 bd ae c4 12 bd 3f 6d 01 3d
       0.037914686 -0.08894183 -0.0358321 0.031598326
000010 d6 3d 18 3d 97 c9 a9 bd cd 87 28 3c c0 55 b8 bd
       0.037168346 -0.08290403 0.010286284 -0.090007305
000020 ab 6c 14 bd 92 6c 11 bc c4 4d 0b bd a0 fe 64 bc
       -0.036236446 -0.008875983 -0.03400971 -0.013976723
000030 eb c6 db bc 9f 5c 5d bd d0 0e 8e bd 76 30 a6 bc
       -0.02682825 -0.05404341 -0.06936419 -0.02028678
000040 0d 5b af 3c b3 1c 97 bc ab d4 39 3a fb 96 8a bd
       0.021405721 -0.018446302 0.000708888 -0.067670785
000050 1a 56 a7 bc 3d 09 65 bd 78 af 0f 3d f0 ae 0e 3b
       -0.020426799 -0.055917013 0.03507945 0.0021771751
000060 78 1f b5 bc 00 e1 86 bd 4f de 5b bd c2 b0 0f 3d
       -0.022109732 -0.06585884 -0.053678807 0.03508068
000070 ea d7 8f 3c 78 e9 f1 bc 23 57 c1 bb 95 de ad 3b
       0.01755901 -0.029530272 -0.00590028 0.005306075
000080 a4 72 01 bd 32 49 a8 bc cf fb 79 bb b4 d1 37 bd
       -0.03160347 -0.020542715 -0.0038144474 -0.044877723
000090 7b 4f 50 3a 04 20 0a bd 74 3b be ba 60 43 de bc
       0.0007946414 -0.03372194 -0.0014513568 -0.027131736
0000a0 44 63 9e bd 56 d0 5a bd 65 1e ea bc af 74 e4 3c
       -0.07733777 -0.05342134 -0.028578946 0.02788767
0000b0 5c 25 a3 bb 5a cd 30 bd fa 96 18 bd 75 88 0d bd
       -0.004978819 -0.04316459 -0.037253357 -0.034553964
0000c0 b2 71 6e bd 9d be 15 bd ae e6 92 bc d5 e2 5a bd
       -0.058213897 -0.036558736 -0.017932262 -0.05343898
0000d0 a8 0d 1c 3c 4f d1 c8 bc a9 3e 8a bc 2f 30 cf bd
       0.00952474 -0.024513869 -0.016875582 -0.10116612
0000e0 54 a9 f5 b7 b8 9a 7f bc 34 f1 00 bc a3 2a c4 bc
       -2.9285125e-05 -0.015600853 -0.007870007 -0.023946112
0000f0 d4 e7 4d 3c ac 23 03 bd 70 28 7b bc 5d 17 ba bc
       0.012567479 -0.03201644 -0.015329465 -0.022716219
000100 2a b2 0b bd 3b 7b a0 bd 00 cd ab 3b 87 60 a4 bc
       -0.034105457 -0.07836004 0.0052429438 -0.02006556
000110 08 eb 04 3d 16 12 1e 3d 90 24 ce 3b 7b 8c d5 bc
       0.032450706 0.038591467 0.0062909797 -0.026067963
000120 b3 28 9a bd 1f a7 bd 3c 74 a7 d3 bc 7a 98 82 bc
       -0.07527294 0.023150979 -0.025836684 -0.015941847
000130 be 94 7c bd df b0 8d bc 45 cb 8c bc 2b eb 70 3c
       -0.06166529 -0.017296253 -0.01718677 0.014704506
000140 28 62 7a bd 1e 56 f6 bc 8f 39 5f bd 57 3f 02 bd
       -0.061128765 -0.03007036 -0.05449825 -0.031798687
000150 fb ff 8c 3c a8 a5 cb bc 13 b3 dd bc 68 86 8b bb
       0.017211905 -0.024859264 -0.027062928 -0.004257966
000160 6d ac 26 3c b7 c8 d4 bc 6d 4f ae bd 45 cd 39 bd
       0.010172945 -0.025974615 -0.08511243 -0.045361776
000170 d3 9f 56 bc 2f 41 9b bc dc 97 f1 bc 4f 0f 41 bd
       -0.0130996285 -0.01895198 -0.029491358 -0.04713374
000180 a2 68 ac bc f2 15 84 3c fb 33 4d bd 1e 94 69 bc
       -0.021045987 0.016123746 -0.0500984 -0.014256505
000190 20 87 87 bd be 97 a0 3c d7 fd 83 bd 91 3f aa 3b
       -0.0661757 0.019603606 -0.064449005 0.005195566
0001a0 46 11 cf bc 30 b4 97 bc 9a 44 24 bd 76 b0 64 bd
       -0.025276791 -0.018518537 -0.040104486 -0.05583235
0001b0 5a 3f 70 bc 0a 73 9b 3b 82 a6 c6 3a 22 c3 a5 3c
       -0.014663542 0.0047439383 0.0015155824 0.020234648
0001c0 3e 3a ad bc 62 bc 9a 3c f1 97 c5 3c 0e df 72 bd
       -0.021145936 0.018888656 0.024120303 -0.059294753
0001d0 86 c9 40 bd 1e ab 66 3c bc d5 af bc c4 98 68 3c
       -0.047067188 0.014078883 -0.021464221 0.014196578
0001e0 72 77 b1 3c f0 28 fb bb 07 a6 6e bc 69 a9 3a 3d
       0.021663401 -0.0076647922 -0.014565951 0.04557172
0001f0 89 24 8d bc 2f 79 6b bd 61 d5 9f bd 98 6d 06 bc
       -0.017229335 -0.057488617 -0.07804371 -0.00820484
000200 17 05 f6 bc 07 fc 22 3d 8c bb e4 3c 8f fb c4 3c
       -0.030031724 0.039791133 0.02792146 0.024045734
000210 a5 ce 0a 3d 94 54 e8 3c 69 06 29 3d 6c 80 86 bb
       0.033888478 0.028360642 0.04126588 -0.0041046645
000220 11 58 31 3d e6 16 77 3c 4a d0 8f 3c 4d f9 00 bd
       0.043296877 0.015081143 0.017555375 -0.03148775
000230 45 1e a3 3c 5d e0 4f bd 4f 76 06 bc 72 bf 92 bd
       0.019911895 -0.05075108 -0.008206918 -0.071654215
000240 b4 51 9b bb 53 2a ce bb 58 e4 69 bc 96 0e 2e 3d
       -0.0047399644 -0.0062916665 -0.014275633 0.04249438
000250 59 5c 56 bd 8b c4 6e bd 1f 1f bb bb 3f 10 83 bd
       -0.052334163 -0.058292907 -0.005710497 -0.06399583
000260 e6 ec 07 bd ca 0c 1e bd ac 96 6a b9 3c 6f 7e bd
       -0.03318491 -0.038586415 -0.00022372109 -0.0621178
000270 20 da c8 bd 6d 9c c3 ba 08 51 21 bd ae bd 34 bd
       -0.09807229 -0.0014923938 -0.039383918 -0.044126205
000280 15 0a b8 bd 89 f5 fa bc e2 61 09 3d a9 b1 8a bd
       -0.08986298 -0.030634658 0.033540614 -0.06772167
000290 dd 23 39 bd 95 d8 2e bc e6 49 21 bd 97 b6 bd 3b
       -0.045200218 -0.010671754 -0.039377116 0.0057895887
0002a0 c0 48 b7 3c 8e da 82 3c 35 7c 0a bd 42 d2 0b bc
       0.022373557 0.015973356 -0.03380986 -0.008534016
0002b0 d8 d9 5a bc 25 33 9d 3c 38 20 7e bc 68 fd 06 bd
       -0.013357602 0.019189427 -0.015510611 -0.03295651
0002c0 84 79 ca 3b ce 65 89 3c 95 ff d6 3b 6e 6f 46 3c
       0.0061790366 0.016772177 0.0065612295 0.012111528
0002d0 33 36 18 bc 3f d0 41 bd 07 e8 94 bb b5 80 97 bd
       -0.009290266 -0.04731774 -0.0045442614 -0.07397596
0002e0 5d 55 49 bc 59 6a d1 3c 69 26 96 bc e8 aa 09 3d
       -0.012288419 0.025563406 -0.018328862 0.033610255
0002f0 7b ed 61 bc a1 0f f6 bc b0 6a f8 3c fb 33 eb bc
       -0.01378953 -0.03003675 0.03032431 -0.02871131
000300 16 84 3d 3b 45 7f 72 3c 9a c8 fd 3c 9b 5b 05 3d
       0.002891784 0.014800851 0.030979443 0.032558065
000310 de 5f fd bc b4 f6 89 bd 1d 5d b7 ba 8e d6 42 3a
       -0.030929502 -0.06736508 -0.0013989542 0.0007432484
000320 fd 15 65 bd fc 05 31 bd 7f dc 60 bd 04 31 71 bc
       -0.055929173 -0.043218598 -0.05489778 -0.014721159
000330 8a 1a 69 bd c8 a2 45 3c 88 79 66 bd c5 73 82 bd
       -0.056910075 0.012062736 -0.056268245 -0.063697375
000340 da 7e cf 3c 71 68 13 bd c9 93 0e 3d ec 1d 05 3c
       0.025329042 -0.035988275 0.034808908 0.00812481
000350 95 42 56 bd 8d 21 ae bb 51 d4 72 bd 96 43 5f bd
       -0.05230959 -0.005314058 -0.059284512 -0.054507814
000360 22 c8 9d 3c fa cd 3e bd ed 62 f7 3b 85 56 7c bb
       0.01926047 -0.046583153 0.0075496347 -0.0038503718
000370 49 f3 02 3d 01 48 20 3d 2c 0d 13 bc 12 d0 cd bc
       0.031970296 0.03913117 -0.008975308 -0.02512363
000380 e1 91 26 bd f3 4b 1b 3c 68 25 98 3b c5 05 a2 bd
       -0.040666465 0.009478557 0.004643131 -0.07911257
000390 d3 bf 67 bc 5e 72 bb bc cf 81 08 3d a0 22 ec bc
       -0.014144856 -0.022881683 0.03332692 -0.028825104
0003a0 40 3c 3a bd 21 28 42 b9 4e 27 96 bd 56 06 0e 3d
       -0.045467615 -0.00018516231 -0.073317155 0.03467401
0003b0 0a a5 1a 3d ca ab b3 bd e4 de ef bc 24 58 10 bd
       0.03775505 -0.087730005 -0.029281087 -0.035240307
0003c0 3d d8 a6 bd 78 1d 66 bd e3 34 1b 3d b7 fb 1e 3d
       -0.08146713 -0.056180447 0.037892234 0.038814273
0003d0 e7 7b c2 bc 9f 00 a7 3a 54 a5 32 bc b0 03 b5 bc
       -0.023740722 0.0012741274 -0.010903675 -0.022096485
0003e0 64 d6 2a bd 65 72 ba bc 7e d9 f8 bc 05 b7 8e 3c
       -0.041708365 -0.022759626 -0.030377146 0.017421255
0003f0 4e 63 8e bc 91 d6 49 3d 40 dd 70 bd cc 58 12 bc
       -0.017381337 0.049276892 -0.05880475 -0.008932304

layer_2.bias f4 [300]
000000 d5 51 ee bb 28 22 7c bd 77 5c fb bc 16 73 d5 bc
       -0.0072729387 -0.06155601 -0.03068374 -0.026055854
000010 cf 0f 71 be 01 d0 64 bd 27 2a a1 bd 28 1a fc 3d
       -0.23541187 -0.05586243 -0.07869368 0.123096764
000020 c1 f1 81 bd f7 78 81 bc 34 2c 98 bd e2 8b 3f be
       -0.06344939 -0.01580475 -0.07430306 -0.18705705
000030 2a 2f 35 bd 6e c9 0a bd 74 f4 4b 3c a3 99 a7 bc
       -0.044234432 -0.033883505 0.012448419 -0.020459002
000040 58 ac d8 bc 22 a5 14 bd d8 5c 86 bd 76 df 4c bb
       -0.026449367 -0.036290295 -0.06560677 -0.0031261123
000050 e6 89 a6 be a5 b3 a6 bd 32 f6 4a bd 91 b4 21 bd
       -0.32527083 -0.08139733 -0.049551196 -0.039478842
000060 f8 86 5b be 23 f4 a8 bd 25 b3 4e bd 8a de 18 3e
       -0.21438205 -0.082496904 -0.050463814 0.14928642
000070 c0 48 b2 bd 2f 07 64 bc 12 74 40 3d 4a 5a 2a bc
       -0.08705282 -0.013917728 0.046985693 -0.010397503
000080 5a 7e 3d 3e 85 eb 03 3c ba e0 36 bd 14 bb 84 be
       0.1850523 0.008051758 -0.04464791 -0.2592398
000090 e6 af 6f 3d ab 5e 9f bc fa e8 48 3c 67 46 91 bc
       0.05851736 -0.01945432 0.012262577 -0.017733766
0000a0 07 46 4b 3e c6 73 53 bc d2 20 e1 bc 0a 45 db bc
       0.19850932 -0.0129060205 -0.02748147 -0.026766319
0000b0 b4 00 97 be ab dc 23 3d 46 1c a4 bd 77 89 84 3c
       -0.29492724 0.040005367 -0.08013205 0.01617883
0000c0 bb 27 96 bd 2d e2 14 be 0f 0f 1e bc 07 0e 3a be
       -0.07331797 -0.14539404 -0.009647145 -0.18169414
0000d0 8b 86 48 bb 18 5a be bd 5b 12 c8 39 72 59 bf bc
       -0.0030597772 -0.09294528 0.0003816065 -0.02335808
0000e0 94 bc 30 bd cf c2 da bc ba e0 2e bd 88 b6 14 bc
       -0.043148592 -0.02670422 -0.042694785 -0.009076722
0000f0 c7 2d 0b 3d ba 59 9c bd 00 7a 00 bd dc 81 24 bd
       0.033979204 -0.076343015 -0.03136635 -0.040162906
000100 e9 51 79 3d 6f 58 41 ba 54 0d 92 bd 45 a0 bc bd
       0.06086913 -0.00073755434 -0.071314484 -0.092102565
000110 23 18 b8 3c ff d3 cb bb 44 fc 01 be 09 40 7e bd
       0.022472447 -0.0062203403 -0.12693888 -0.062072787
000120 b1 46 de 3a 35 77 28 bd df 52 09 3e cc a2 2d bd
       0.0016958324 -0.04112931 0.13410519 -0.042391583
000130 3b 5c ce bb 2b 68 9a bd 47 43 41 be 69 69 ee bc
       -0.006297616 -0.075394 -0.1887332 -0.029102998
000140 e1 a3 9e bd 52 ad cf 3c 42 96 6d bd 81 c2 75 bd
       -0.07746101 0.0253512 -0.058004625 -0.059999947
000150 65 9d 06 bc 09 92 85 bd fc 3d d8 bd cc d0 8d bd
       -0.008216237 -0.065219946 -0.105586976 -0.069245905
000160 c2 f1 26 bd 31 2c a2 bc 59 a2 ef bc a4 ed 9d bd
       -0.040757902 -0.019796463 -0.029252218 -0.07711342
000170 eb dd 8f bd ed 96 d2 bc 3e 09 8a bd c6 db c2 bc
       -0.07024749 -0.025706733 -0.06740044 -0.023786437
000180 82 42 f5 bd df 6c ad bc 9d 54 5c bd 97 3d 8a 3d
       -0.11975576 -0.021170078 -0.05379163 0.067500286
000190 9e 8b 9e bd 92 d7 d7 bc ef 15 5c bd 53 b7 9d bc
       -0.077414736 -0.02634791 -0.053731855 -0.019252455
0001a0 41 3b 89 be f2 0b b6 3d e7 9c a4 bd af bc 10 bd
       -0.2680302 0.08888997 -0.08037739 -0.035336193
0001b0 27 04 32 bc 0e 82 67 bd 3f 4d c9 bc 7e 82 95 bd
       -0.010865248 -0.056520514 -0.024572967 -0.0730028
0001c0 66 1a a9 bd dc bd 67 bd a1 9e db 3b 97 77 5a bd
       -0.08256988 -0.05657755 0.0067022596 -0.053336706
0001d0 7b f7 b8 3d 48 09 9e bc 91 12 56 bd e8 30 11 bd
       0.09031578 -0.019291535 -0.0522638 -0.03544703
0001e0 b9 90 21 be 84 71 7c be 8a 52 7a bd e8 35 09 bd
       -0.15777864 -0.24652678 -0.06111387 -0.033498675
0001f0 ab bd 3e be 34 ce 7b be 22 e3 c6 3d 0f eb af bc
       -0.1862704 -0.24590379 0.09711291 -0.02147439
000200 4a 09 6d bd 4c 24 74 3c 1e 80 48 bc e9 13 da bd
       -0.057870187 0.014901232 -0.012237577 -0.10648329
000210 73 d8 23 3e eb bf 42 bc 0b fc 18 bd 17 eb d9 bc
       0.16000538 -0.011886577 -0.037349742 -0.026601357
000220 75 65 36 bc 92 81 8b 3d c6 97 51 3c 44 98 b1 3d
       -0.011132588 0.06811823 0.012792533 0.086716205
000230 e0 df 6c 3c c8 69 47 be d1 60 6a 3c bd 88 83 bd
       0.014457673 -0.19473946 0.014305309 -0.06422565
000240 7f b4 1c be e3 f1 ad bd cf 28 d5 bc 71 de 07 bc
       -0.15303229 -0.08493402 -0.026020436 -0.00829278
000250 99 21 44 3d d3 d0 84 bb b4 a3 b9 bd a8 48 b4 bc
       0.047883604 -0.004053214 -0.09064427 -0.022007301
000260 83 1b 3b bb 9c d0 2c bd 30 db 33 bd 73 12 f3 3c
       -0.0028550334 -0.042191133 -0.043910205 0.029671883
000270 29 52 99 3c cc 91 c5 bd d4 c4 43 bd e2 7d 11 3d
       0.018715935 -0.09646949 -0.04779513 0.03552044
000280 dc c5 be bd 00 bb ad bd 1b 13 7c bd 2c 82 b3 3d
       -0.093150824 -0.08482933 -0.061541658 0.08765063
000290 94 3e 5f bd b2 d0 53 bd af 84 81 bc 02 cc a3 bd
       -0.05450304 -0.0517127 -0.015810339 -0.07997896
0002a0 81 94 19 bd 28 2e 2a bd 65 cb b5 3c 3c 94 15 bd
       -0.03749514 -0.041547924 0.022191713 -0.03651832
0002b0 14 9c fe bd b8 09 c2 bc f5 60 2f bd a5 cf 2d 3b
       -0.12432113 -0.023686275 -0.042817075 0.002652147
0002c0 85 89 7b bd 1c fd 5f bd 9c 8b 8d bd 8e 12 41 bd
       -0.061410446 -0.054684743 -0.06911394 -0.047136836
0002d0 63 af 89 bd b4 35 e6 3b 37 da d8 bd 62 e9 0a bc
       -0.067229055 0.007025445 -0.10588496 -0.008478494
0002e0 ed 43 94 be 35 54 92 be 6f 68 81 3b 52 ec 5a bc
       -0.28958073 -0.2857987 0.003949217 -0.013362007
0002f0 5d c3 b1 3d f3 2b 13 bd bb 1d 09 be 1f 75 85 bd
       0.08679841 -0.035930585 -0.13390248 -0.0651648
000300 18 45 92 bd 7a 4d 4d be e4 4d 1f bc ba 45 07 3d
       -0.07142085 -0.20049086 -0.00972316 0.03302548
000310 00 21 50 bd 55 8c a9 bd a7 f6 1f bd 28 04 01 bd
       -0.05081272 -0.08278719 -0.039053585 -0.031498104
000320 73 01 89 be a5 e6 eb bd ac dc b1 3c cb 9d 94 3c
       -0.26758918 -0.11518601 0.02171167 0.018141648
000330 38 94 cf bd b1 d1 10 bd d2 9a cd bd 87 c9 7e bd
       -0.10135692 -0.035356227 -0.10039295 -0.06220391
000340 95 ae e1 bc cd 8c 5e bd 4e dd 99 3c c8 ca 98 bc
       -0.027549068 -0.054333497 0.018782284 -0.018651381
000350 b0 ad bf bc 85 4b 8f 3d f1 57 0b bc c5 ba 46 bd
       -0.02339825 0.06996826 -0.008504854 -0.04851796
000360 a2 58 05 bc 64 2e af bd 10 e5 5f bc 09 ee 4b 3e
       -0.0081388075 -0.0855377 -0.013665453 0.19915022
000370 eb 65 fb bd ce 6f bd bd 92 8f a2 3d d1 0d ad bc
       -0.12275299 -0.09249841 0.0793754 -0.021124752
000380 52 74 8a ba fa d5 b0 bd c8 d7 0e be 35 83 ca bc
       -0.0010563231 -0.08634563 -0.13949502 -0.024720768
000390 cd db 5a bd dc 68 31 be 37 cc 4e be 65 51 45 bd
       -0.053432275 -0.17325157 -0.2019509 -0.048173327
0003a0 7e d7 7a be 92 03 b4 bd f2 fc fb bc f0 11 14 be
       -0.24496266 -0.087897435 -0.030760262 -0.14459968
0003b0 d2 d9 3d bd ba 91 f3 bc 97 9b 8f bd 87 81 a3 3d
       -0.046350308 -0.029732574 -0.07012098 0.0798369
0003c0 aa 11 8c bc 0b 96 98 bd 3e 16 0b be e1 7e c0 bc
       -0.017098267 -0.074504934 -0.13582703 -0.023498
0003d0 65 5a 69 bd 66 b9 5a bd dd 83 e7 bc 32 14 2e bd
       -0.056970973 -0.053399466 -0.02826112 -0.04249973
0003e0 f6 68 7f bd 2f ee 25 bd c0 c5 a3 bd 02 29 3c be
       -0.062355958 -0.040510353 -0.07996702 -0.18375018
0003f0 4e 7c 04 bd 1c 05 aa bd 10 7e e4 bc ab 6a 81 bd
       -0.03234511 -0.08301756 -0.027892143 -0.063191734

layer_3.weight f4 [8, 300]
000000 30 50 32 bd c8 54 89 3d f9 26 ae 3c 47 ff a2 3c
       -0.043533504 0.06705624 0.021258818 0.019897116
000010 79 68 fb 3e 2e 7b 44 3d c3 3b ed 3c 94 4f 35 be
       0.49103144 0.047969036 0.02895916 -0.17706138
000020 b2 f8 79 bc 45 3a 9d bc 60 c6 91 bc 7a 22 51 3c
       -0.0152570475 -0.019192824 -0.017794788 0.0127645675
000030 0f 67 87 3d e4 df b7 3c b7 4c a5 ba e9 ab bb bc
       0.06611454 0.022445627 -0.0012611364 -0.022909122
000040 0e b8 1e bd 32 92 47 bd b6 84 10 bd bc 82 04 3b
       -0.038749747 -0.048723407 -0.035282813 0.0020219525
000050 9a 82 ce bd 27 31 03 3d 54 c6 bc 3b c8 96 11 bc
       -0.10083504 0.032029297 0.0057609472 -0.008886047
000060 6b db 04 3f 9d 0a 1c be 03 62 f1 3c 67 70 81 bc
       0.51897305 -0.15238424 0.029465681 -0.015800668
000070 42 59 68 3e a5 a7 79 be d9 92 a7 bf 84 8f 83 3c
       0.22690299 -0.24380358 -1.3091689 0.016059645
000080 4d 44 05 bd e1 9f 7d bc df ba a2 3d 56 b2 2c be
       -0.03253584 -0.015480013 0.07945799 -0.16864905
000090 4b d6 e9 3d 22 9f 78 3e ee 76 d0 3e 55 70 93 3c
       0.11417826 0.24279454 0.40715736 0.0179979
0000a0 07 be 85 be 15 36 92 3c 7f 44 70 3d 91 89 75 bb
       -0.26121542 0.017848054 0.058659073 -0.003746603
0000b0 25 db 2c 3f 85 73 9b 3e e5 11 2d 3d 54 b0 85 bc
       0.6752189 0.30361572 0.042253394 -0.016319431
0000c0 aa 13 d1 3c 40 69 86 3d 57 ee 83 3d c3 ae 77 bc
       0.025522072 0.065630436 0.06441944 -0.01511735
0000d0 96 4b 38 3d f5 c6 ca be 2c b7 23 3c 47 ff 82 bc
       0.04499396 -0.39604917 0.009992402 -0.015990866
0000e0 3c ff 71 bc 24 f2 e2 3e 75 42 f7 bc 50 c7 23 bd
       -0.014770325 0.44325364 -0.030183056 -0.039985
0000f0 32 ee 29 be a1 ae 93 3d 3e c3 73 be d9 b9 0e bd
       -0.1659477 0.07211042 -0.23804948 -0.034845207
000100 3f 7f 79 3e 0f 01 85 3d ae 9c 15 be 3e 7a 6d bd
       0.24364947 0.064943425 -0.1461055 -0.057977907
000110 bf 36 e8 3e 3e 85 cc bb ec af 63 be 48 23 2b 3c
       0.45354268 -0.0062414696 -0.22235078 0.010445423
000120 94 73 b6 3c 2f c4 d3 3e f5 30 56 be a6 2a 82 3c
       0.022271909 0.41360614 -0.20917113 0.015889477
000130 3a ae ad 3c 29 28 a6 3c 31 f0 00 3e 49 aa 1a bd
       0.021201242 0.020282822 0.12591626 -0.037760053
000140 98 d5 2f bc a2 15 85 3e d8 90 ee bd 4e 2f b4 3e
       -0.010732077 0.25993067 -0.116487205 0.3519234
000150 47 05 d1 3c fb 60 4d 3d 57 e6 5f bd 8e 69 46 bc
       0.025515212 0.050141316 -0.05466303 -0.012110127
000160 4e 59 0b bd ab 6d 7e 3c 2f f1 10 3c 27 e4 a1 bb
       -0.034020714 0.015529077 0.008846565 -0.004940528
000170 99 98 4b bd 7b 61 3f bd a4 08 1a bc 5d 13 cc bb
       -0.049706075 -0.046723824 -0.009401474 -0.006227894
000180 46 ef 75 3d bb 80 ac 3d 05 38 b5 bc 3b c2 79 bd
       0.060042642 0.08422991 -0.022121439 -0.06097625
000190 f2 fb 8b bc 32 8f 9e 3c 08 92 82 3d e3 01 b4 3b
       -0.01708791 0.01935539 0.063755095 0.005493389
0001a0 33 43 a8 bc 3c e6 d3 3d dd 7d 25 3d f1 f3 a0 3d
       -0.020539856 0.10346648 0.040403236 0.07859028
0001b0 53 9a 2c 3d 21 0f 52 bb ca 9b c1 ba a0 04 61 3d
       0.042139363 -0.0032052475 -0.001477116 0.05493605
0001c0 24 13 47 3d c9 45 79 3a fc 21 1f 3d e8 ba 91 bd
       0.04860224 0.0009508995 0.03885077 -0.07115728
0001d0 50 90 b6 be 05 48 6d 3c 8c 77 8c 3b a5 f1 20 3d
       -0.35656977 0.014482503 0.004286712 0.03929295
0001e0 93 65 9f be f5 4d 08 3e cf 65 65 3e 0b 8e 1a 3c
       -0.31132182 0.13310988 0.22402118 0.00943328
0001f0 9e 62 96 3d 1c a7 95 3e 19 4a 9b 3e ac 3e 9c bc
       0.073430285 0.29229057 0.3032997 -0.019072853
000200 8f 3c c8 bc 09 78 17 bf 2b 78 38 bd 3a bb 52 3d
       -0.02444294 -0.59167534 -0.045036476 0.051448084
000210 15 3a fd 3d a0 16 2d bd 3f 8f f4 3c 0c 50 a0 be
       0.12364594 -0.042257905 0.029853461 -0.3131107
000220 20 31 52 3d 68 77 03 bf dd 12 85 3d 7c 65 44 3d
       0.05131638 -0.51354074 0.064977385 0.047948346
000230 34 5a 62 3d a0 62 93 3d 6b 56 95 3d 1d 8b bc bb
       0.055261806 0.071965456 0.072918735 -0.0057538883
000240 ef dc cb 3d 28 bb 48 3b f9 47 a2 3d db c2 34 be
       0.09954249 0.0030629132 0.07923884 -0.17652456
000250 74 36 2d bd 50 a1 b8 bd 13 81 b7 be 27 45 20 bd
       -0.04228826 -0.09015143 -0.35840663 -0.03912845
000260 ce 51 5e be 75 ee 82 bc 2a ec 33 bb 5a 39 23 be
       -0.21710894 -0.015982846 -0.0027453997 -0.15939847
000270 67 eb bd bc f5 f2 0f 3d 90 95 10 3d f8 86 0f 3e
       -0.023183538 0.03514381 0.035298884 0.1401633
000280 62 83 d5 ba a2 f9 4f be 15 ec 31 3c 72 59 f5 3d
       -0.0016289765 -0.20310071 0.010859509 0.11979951
000290 43 39 1f bd f8 b4 0b bd 72 99 26 3d df ab 45 bd
       -0.03887297 -0.034108132 0.04067368 -0.048259612
0002a0 24 09 7f bd 73 b1 6c bd 01 6e 2b 3c 6e c8 b9 bc
       -0.062264577 -0.057786416 0.010463239 -0.02267858
0002b0 95 83 c5 bc cb 16 db 3d 3f c4 04 ba 62 77 52 bc
       -0.024110595 0.10697707 -0.00050646433 -0.012845846
0002c0 10 20 47 3c 29 bd 72 bb f4 ee a4 3d 78 1a 69 3b
       0.01215364 -0.0037039018 0.08053389 0.0035568755
0002d0 b0 cd 30 3e fc c1 55 bd bf 01 6c bd 0b b7 48 3d
       0.17265964 -0.05218695 -0.057618853 0.04900269
0002e0 ab ca 6a 3d aa 62 92 bd 28 e3 dc 3c 80 54 1b 3e
       0.057322185 -0.07147725 0.026963785 0.15168953
0002f0 dd 40 d2 bd 0c 1c df bc 48 a3 c4 3e 57 56 6f 3d
       -0.10266278 -0.027235053 0.38405824 0.05843195
000300 a8 0b ba 3c fd 9d 45 be 9f 93 c9 3b d2 8d 40 3e
       0.022710636 -0.19298549 0.006151631 0.188041
000310 2e 8f 19 bc 7d 55 00 be f6 54 3d 3c 6f ce be 3d
       -0.009372516 -0.12532611 0.011555901 0.09316718
000320 60 75 80 3e 89 a0 8d 3e 05 16 ba 3b f7 49 ef 3d
       0.2508955 0.2766154 0.0056788945 0.116840295
000330 0e 90 fc bd 4e bb ce bd e5 2e 05 be b3 a6 70 3b
       -0.12332164 -0.10094319 -0.1300617 0.0036720454
000340 d9 2a 0a bd d7 e1 7b 3c 75 0d 2f bd f4 c1 1b 3d
       -0.03373227 0.015373669 -0.042737443 0.038026765
000350 4f 6d 80 bd 6b 2b d4 3d c9 22 78 bd e1 c3 80 bc
       -0.06270849 0.10359844 -0.06058005 -0.015718402
000360 2b 73 4c 3a b3 7a 94 bd e9 af 89 3d fa 42 58 be
       0.0007799144 -0.072499655 0.06723005 -0.211193
000370 7c 14 4a 3d d1 11 3c 3d 2b 1c ce 3d 8f c1 ec bc
       0.04933594 0.04591543 0.10063966 -0.02890089
000380 72 1a f6 3c 77 60 a5 ba e1 23 a1 3d 06 73 d5 3a
       0.030041907 -0.001261725 0.078681715 0.001628489
000390 78 bf 41 3c 2a 47 c1 3d 86 2e 2d 3f f8 a8 0e bd
       0.011825435 0.094374016 0.67649114 -0.03482911
0003a0 ad c8 9d 3e c1 2f 2d 3d a9 d4 66 3d 7d 3f fd bc
       0.30817166 0.04228187 0.056355152 -0.030914063
0003b0 66 0c 4c bb ef 93 c9 3c c5 c2 d4 3c bf 44 23 3e
       -0.003113532 0.024606673 0.02597178 0.15944193
0003c0 63 10 6f 3c 96 54 04 3d 6a ce 96 3d f8 79 dd be
       0.014591309 0.03230723 0.07363589 -0.43257117
0003d0 d2 61 75 3e e0 12 91 3d 91 47 d1 3e 49 37 1d be
       0.23963097 0.07083678 0.40874913 -0.15353121
0003e0 d7 61 8b 3d f8 3c a4 3c ee 52 b2 3d 4e 1f 74 3d
       0.06805771 0.020048603 0.08707224 0.059600167
0003f0 f9 81 92 3d a6 2e b3 3c d6 d2 93 3d da 8a c7 3c
       0.071536966 0.02187283 0.07217948 0.024358202

layer_3.bias f4 [8]
000000 c1 58 cf bd 05 e4 12 be 2f 21 71 bc 11 ca 1e bd
       -0.1012435 -0.14344795 -0.014717384 -0.038766924
000010 2f b4 03 3e f1 26 13 be 10 22 62 be 2d e8 00 3e
       0.12861703 -0.14370324 -0.22083306 0.12588568
